…
I0222 20:08:40.692807 21351 net.cpp:316] The NetState phase (0) differed from the phase (1) specified by a rule in layer data
I0222 20:08:40.692855 21351 net.cpp:316] The NetState phase (0) differed from the phase (1) specified by a rule in layer accuracy
I0222 20:08:40.693320 21351 net.cpp:47] Initializing net from parameters:
state {
phase: TRAIN
}
layer {
name: "data"
type: "Data"
top: "data"
top: "label"
include {
phase: TRAIN
}
transform_param {
mirror: true
crop_size: 227
mean_value: 116.64558
}
data_param {
source: "/home/digits/DIGITS/digits/jobs/20160222-193359-de35/train_db"
batch_size: 500
backend: LMDB
prefetch: 4
}
}
layer {
name: "conv1"
type: "Convolution"
bottom: "data"
top: "conv1"
param {
lr_mult: 1
decay_mult: 1
}
param {
lr_mult: 2
decay_mult: 0
}
convolution_param {
num_output: 96
kernel_size: 11
stride: 4
weight_filler {
type: "gaussian"
std: 0.01
}
bias_filler {
type: "constant"
value: 0
}
}
}
layer {
name: "relu1"
type: "ReLU"
bottom: "conv1"
top: "conv1"
}
layer {
name: "norm1"
type: "LRN"
bottom: "conv1"
top: "norm1"
lrn_param {
local_size: 5
alpha: 0.0001
beta: 0.75
}
}
layer {
name: "pool1"
type: "Pooling"
bottom: "norm1"
top: "pool1"
pooling_param {
pool: MAX
kernel_size: 3
stride: 2
}
}
layer {
name: "conv2"
type: "Convolution"
bottom: "pool1"
top: "conv2"
param {
lr_mult: 1
decay_mult: 1
}
param {
lr_mult: 2
decay_mult: 0
}
convolution_param {
num_output: 256
pad: 2
kernel_size: 5
group: 2
weight_filler {
type: "gaussian"
std: 0.01
}
bias_filler {
type: "constant"
value: 0.1
}
}
}
layer {
name: "relu2"
type: "ReLU"
bottom: "conv2"
top: "conv2"
}
layer {
name: "norm2"
type: "LRN"
bottom: "conv2"
top: "norm2"
lrn_param {
local_size: 5
alpha: 0.0001
beta: 0.75
}
}
layer {
name: "pool2"
type: "Pooling"
bottom: "norm2"
top: "pool2"
pooling_param {
pool: MAX
kernel_size: 3
stride: 2
}
}
layer {
name: "conv3"
type: "Convolution"
bottom: "pool2"
top: "conv3"
param {
lr_mult: 1
decay_mult: 1
}
param {
lr_mult: 2
decay_mult: 0
}
convolution_param {
num_output: 384
pad: 1
kernel_size: 3
weight_filler {
type: "gaussian"
std: 0.01
}
bias_filler {
type: "constant"
value: 0
}
}
}
layer {
name: "relu3"
type: "ReLU"
bottom: "conv3"
top: "conv3"
}
layer {
name: "conv4"
type: "Convolution"
bottom: "conv3"
top: "conv4"
param {
lr_mult: 1
decay_mult: 1
}
param {
lr_mult: 2
decay_mult: 0
}
convolution_param {
num_output: 384
pad: 1
kernel_size: 3
group: 2
weight_filler {
type: "gaussian"
std: 0.01
}
bias_filler {
type: "constant"
value: 0.1
}
}
}
layer {
name: "relu4"
type: "ReLU"
bottom: "conv4"
top: "conv4"
}
layer {
name: "conv5"
type: "Convolution"
bottom: "conv4"
top: "conv5"
param {
lr_mult: 1
decay_mult: 1
}
param {
lr_mult: 2
decay_mult: 0
}
convolution_param {
num_output: 256
pad: 1
kernel_size: 3
group: 2
weight_filler {
type: "gaussian"
std: 0.01
}
bias_filler {
type: "constant"
value: 0.1
}
}
}
layer {
name: "relu5"
type: "ReLU"
bottom: "conv5"
top: "conv5"
}
layer {
name: "pool5"
type: "Pooling"
bottom: "conv5"
top: "pool5"
pooling_param {
pool: MAX
kernel_size: 3
stride: 2
}
}
layer {
name: "fc6"
type: "InnerProduct"
bottom: "pool5"
top: "fc6"
param {
lr_mult: 1
decay_mult: 1
}
param {
lr_mult: 2
decay_mult: 0
}
inner_product_param {
num_output: 4096
weight_filler {
type: "gaussian"
std: 0.005
}
bias_filler {
type: "constant"
value: 0.1
}
}
}
layer {
name: "relu6"
type: "ReLU"
bottom: "fc6"
top: "fc6"
}
layer {
name: "drop6"
type: "Dropout"
bottom: "fc6"
top: "fc6"
dropout_param {
dropout_ratio: 0.5
}
}
layer {
name: "fc7"
type: "InnerProduct"
bottom: "fc6"
top: "fc7"
param {
lr_mult: 1
decay_mult: 1
}
param {
lr_mult: 2
decay_mult: 0
}
inner_product_param {
num_output: 4096
weight_filler {
type: "gaussian"
std: 0.005
}
bias_filler {
type: "constant"
value: 0.1
}
}
}
layer {
name: "relu7"
type: "ReLU"
bottom: "fc7"
top: "fc7"
}
layer {
name: "drop7"
type: "Dropout"
bottom: "fc7"
top: "fc7"
dropout_param {
dropout_ratio: 0.5
}
}
layer {
name: "fc8"
type: "InnerProduct"
bottom: "fc7"
top: "fc8"
param {
lr_mult: 1
decay_mult: 1
}
param {
lr_mult: 2
decay_mult: 0
}
inner_product_param {
num_output: 2
weight_filler {
type: "gaussian"
std: 0.01
}
bias_filler {
type: "constant"
value: 0
}
}
}
layer {
name: "loss"
type: "SoftmaxWithLoss"
bottom: "fc8"
bottom: "label"
top: "loss"
}
I0222 20:08:40.693511 21351 layer_factory.hpp:75] Creating layer data
I0222 20:08:40.694533 21351 net.cpp:99] Creating Layer data
I0222 20:08:40.694553 21351 net.cpp:409] data -> data
I0222 20:08:40.694588 21351 net.cpp:409] data -> label
I0222 20:08:40.694607 21351 net.cpp:131] Setting up data
I0222 20:08:40.695840 21354 db.cpp:34] Opened lmdb /home/digits/DIGITS/digits/jobs/20160222-193359-de35/train_db
I0222 20:08:40.698783 21351 data_layer.cpp:37] Decoding Datum
I0222 20:08:40.698839 21351 data_layer.cpp:60] output data size: 500,1,227,227
I0222 20:08:40.945518 21351 net.cpp:140] Top shape: 500 1 227 227 (25764500)
I0222 20:08:40.945549 21351 net.cpp:140] Top shape: 500 (500)
I0222 20:08:40.945564 21351 layer_factory.hpp:75] Creating layer conv1
I0222 20:08:40.945590 21351 net.cpp:99] Creating Layer conv1
I0222 20:08:40.945600 21351 net.cpp:453] conv1 <- data
I0222 20:08:40.945621 21351 net.cpp:409] conv1 -> conv1
I0222 20:08:40.945643 21351 net.cpp:131] Setting up conv1
I0222 20:08:40.948010 21351 net.cpp:140] Top shape: 500 96 55 55 (145200000)
I0222 20:08:40.948053 21351 layer_factory.hpp:75] Creating layer relu1
I0222 20:08:40.948071 21351 net.cpp:99] Creating Layer relu1
I0222 20:08:40.948081 21351 net.cpp:453] relu1 <- conv1
I0222 20:08:40.948091 21351 net.cpp:396] relu1 -> conv1 (in-place)
I0222 20:08:40.948106 21351 net.cpp:131] Setting up relu1
I0222 20:08:40.948117 21351 net.cpp:140] Top shape: 500 96 55 55 (145200000)
I0222 20:08:40.948124 21351 layer_factory.hpp:75] Creating layer norm1
I0222 20:08:40.948137 21351 net.cpp:99] Creating Layer norm1
I0222 20:08:40.948143 21351 net.cpp:453] norm1 <- conv1
I0222 20:08:40.948153 21351 net.cpp:409] norm1 -> norm1
I0222 20:08:40.948166 21351 net.cpp:131] Setting up norm1
I0222 20:08:40.948179 21351 net.cpp:140] Top shape: 500 96 55 55 (145200000)
I0222 20:08:40.948187 21351 layer_factory.hpp:75] Creating layer pool1
I0222 20:08:40.948199 21351 net.cpp:99] Creating Layer pool1
I0222 20:08:40.948206 21351 net.cpp:453] pool1 <- norm1
I0222 20:08:40.948216 21351 net.cpp:409] pool1 -> pool1
I0222 20:08:40.948230 21351 net.cpp:131] Setting up pool1
I0222 20:08:40.948253 21351 net.cpp:140] Top shape: 500 96 27 27 (34992000)
I0222 20:08:40.948262 21351 layer_factory.hpp:75] Creating layer conv2
I0222 20:08:40.948276 21351 net.cpp:99] Creating Layer conv2
I0222 20:08:40.948283 21351 net.cpp:453] conv2 <- pool1
I0222 20:08:40.948294 21351 net.cpp:409] conv2 -> conv2
I0222 20:08:40.948307 21351 net.cpp:131] Setting up conv2
I0222 20:08:40.979805 21351 net.cpp:140] Top shape: 500 256 27 27 (93312000)
I0222 20:08:40.979841 21351 layer_factory.hpp:75] Creating layer relu2
I0222 20:08:40.979858 21351 net.cpp:99] Creating Layer relu2
I0222 20:08:40.979867 21351 net.cpp:453] relu2 <- conv2
I0222 20:08:40.979879 21351 net.cpp:396] relu2 -> conv2 (in-place)
I0222 20:08:40.979894 21351 net.cpp:131] Setting up relu2
I0222 20:08:40.979904 21351 net.cpp:140] Top shape: 500 256 27 27 (93312000)
I0222 20:08:40.979912 21351 layer_factory.hpp:75] Creating layer norm2
I0222 20:08:40.979923 21351 net.cpp:99] Creating Layer norm2
I0222 20:08:40.979930 21351 net.cpp:453] norm2 <- conv2
I0222 20:08:40.979940 21351 net.cpp:409] norm2 -> norm2
I0222 20:08:40.979953 21351 net.cpp:131] Setting up norm2
I0222 20:08:40.979964 21351 net.cpp:140] Top shape: 500 256 27 27 (93312000)
I0222 20:08:40.979971 21351 layer_factory.hpp:75] Creating layer pool2
I0222 20:08:40.979986 21351 net.cpp:99] Creating Layer pool2
I0222 20:08:40.979993 21351 net.cpp:453] pool2 <- norm2
I0222 20:08:40.980002 21351 net.cpp:409] pool2 -> pool2
I0222 20:08:40.980013 21351 net.cpp:131] Setting up pool2
I0222 20:08:40.980027 21351 net.cpp:140] Top shape: 500 256 13 13 (21632000)
I0222 20:08:40.980036 21351 layer_factory.hpp:75] Creating layer conv3
I0222 20:08:40.980048 21351 net.cpp:99] Creating Layer conv3
I0222 20:08:40.980056 21351 net.cpp:453] conv3 <- pool2
I0222 20:08:40.980067 21351 net.cpp:409] conv3 -> conv3
I0222 20:08:40.980079 21351 net.cpp:131] Setting up conv3
I0222 20:08:41.023185 21351 net.cpp:140] Top shape: 500 384 13 13 (32448000)
I0222 20:08:41.023226 21351 layer_factory.hpp:75] Creating layer relu3
I0222 20:08:41.023242 21351 net.cpp:99] Creating Layer relu3
I0222 20:08:41.023252 21351 net.cpp:453] relu3 <- conv3
I0222 20:08:41.023262 21351 net.cpp:396] relu3 -> conv3 (in-place)
I0222 20:08:41.023277 21351 net.cpp:131] Setting up relu3
I0222 20:08:41.023288 21351 net.cpp:140] Top shape: 500 384 13 13 (32448000)
I0222 20:08:41.023294 21351 layer_factory.hpp:75] Creating layer conv4
I0222 20:08:41.023308 21351 net.cpp:99] Creating Layer conv4
I0222 20:08:41.023315 21351 net.cpp:453] conv4 <- conv3
I0222 20:08:41.023326 21351 net.cpp:409] conv4 -> conv4
I0222 20:08:41.023339 21351 net.cpp:131] Setting up conv4
I0222 20:08:41.055599 21351 net.cpp:140] Top shape: 500 384 13 13 (32448000)
I0222 20:08:41.055634 21351 layer_factory.hpp:75] Creating layer relu4
I0222 20:08:41.055649 21351 net.cpp:99] Creating Layer relu4
I0222 20:08:41.055658 21351 net.cpp:453] relu4 <- conv4
I0222 20:08:41.055670 21351 net.cpp:396] relu4 -> conv4 (in-place)
I0222 20:08:41.055685 21351 net.cpp:131] Setting up relu4
I0222 20:08:41.055694 21351 net.cpp:140] Top shape: 500 384 13 13 (32448000)
I0222 20:08:41.055701 21351 layer_factory.hpp:75] Creating layer conv5
I0222 20:08:41.055714 21351 net.cpp:99] Creating Layer conv5
I0222 20:08:41.055721 21351 net.cpp:453] conv5 <- conv4
I0222 20:08:41.055732 21351 net.cpp:409] conv5 -> conv5
I0222 20:08:41.055745 21351 net.cpp:131] Setting up conv5
I0222 20:08:41.077410 21351 net.cpp:140] Top shape: 500 256 13 13 (21632000)
I0222 20:08:41.077450 21351 layer_factory.hpp:75] Creating layer relu5
I0222 20:08:41.077466 21351 net.cpp:99] Creating Layer relu5
I0222 20:08:41.077476 21351 net.cpp:453] relu5 <- conv5
I0222 20:08:41.077487 21351 net.cpp:396] relu5 -> conv5 (in-place)
I0222 20:08:41.077502 21351 net.cpp:131] Setting up relu5
I0222 20:08:41.077512 21351 net.cpp:140] Top shape: 500 256 13 13 (21632000)
I0222 20:08:41.077518 21351 layer_factory.hpp:75] Creating layer pool5
I0222 20:08:41.077529 21351 net.cpp:99] Creating Layer pool5
I0222 20:08:41.077536 21351 net.cpp:453] pool5 <- conv5
I0222 20:08:41.077546 21351 net.cpp:409] pool5 -> pool5
I0222 20:08:41.077558 21351 net.cpp:131] Setting up pool5
I0222 20:08:41.077574 21351 net.cpp:140] Top shape: 500 256 6 6 (4608000)
I0222 20:08:41.077581 21351 layer_factory.hpp:75] Creating layer fc6
I0222 20:08:41.077597 21351 net.cpp:99] Creating Layer fc6
I0222 20:08:41.077605 21351 net.cpp:453] fc6 <- pool5
I0222 20:08:41.077654 21351 net.cpp:409] fc6 -> fc6
I0222 20:08:41.077674 21351 net.cpp:131] Setting up fc6
I0222 20:08:42.901561 21351 net.cpp:140] Top shape: 500 4096 (2048000)
I0222 20:08:42.901597 21351 layer_factory.hpp:75] Creating layer relu6
I0222 20:08:42.901614 21351 net.cpp:99] Creating Layer relu6
I0222 20:08:42.901623 21351 net.cpp:453] relu6 <- fc6
I0222 20:08:42.901635 21351 net.cpp:396] relu6 -> fc6 (in-place)
I0222 20:08:42.901649 21351 net.cpp:131] Setting up relu6
I0222 20:08:42.901662 21351 net.cpp:140] Top shape: 500 4096 (2048000)
I0222 20:08:42.901669 21351 layer_factory.hpp:75] Creating layer drop6
I0222 20:08:42.901681 21351 net.cpp:99] Creating Layer drop6
I0222 20:08:42.901689 21351 net.cpp:453] drop6 <- fc6
I0222 20:08:42.901697 21351 net.cpp:396] drop6 -> fc6 (in-place)
I0222 20:08:42.901712 21351 net.cpp:131] Setting up drop6
I0222 20:08:42.901733 21351 net.cpp:140] Top shape: 500 4096 (2048000)
I0222 20:08:42.901741 21351 layer_factory.hpp:75] Creating layer fc7
I0222 20:08:42.901757 21351 net.cpp:99] Creating Layer fc7
I0222 20:08:42.901763 21351 net.cpp:453] fc7 <- fc6
I0222 20:08:42.901775 21351 net.cpp:409] fc7 -> fc7
I0222 20:08:42.901789 21351 net.cpp:131] Setting up fc7
I0222 20:08:43.713503 21351 net.cpp:140] Top shape: 500 4096 (2048000)
I0222 20:08:43.713537 21351 layer_factory.hpp:75] Creating layer relu7
I0222 20:08:43.713554 21351 net.cpp:99] Creating Layer relu7
I0222 20:08:43.713562 21351 net.cpp:453] relu7 <- fc7
I0222 20:08:43.713577 21351 net.cpp:396] relu7 -> fc7 (in-place)
I0222 20:08:43.713609 21351 net.cpp:131] Setting up relu7
I0222 20:08:43.713620 21351 net.cpp:140] Top shape: 500 4096 (2048000)
I0222 20:08:43.713627 21351 layer_factory.hpp:75] Creating layer drop7
I0222 20:08:43.713639 21351 net.cpp:99] Creating Layer drop7
I0222 20:08:43.713646 21351 net.cpp:453] drop7 <- fc7
I0222 20:08:43.713655 21351 net.cpp:396] drop7 -> fc7 (in-place)
I0222 20:08:43.713665 21351 net.cpp:131] Setting up drop7
I0222 20:08:43.713677 21351 net.cpp:140] Top shape: 500 4096 (2048000)
I0222 20:08:43.713685 21351 layer_factory.hpp:75] Creating layer fc8
I0222 20:08:43.713697 21351 net.cpp:99] Creating Layer fc8
I0222 20:08:43.713704 21351 net.cpp:453] fc8 <- fc7
I0222 20:08:43.713716 21351 net.cpp:409] fc8 -> fc8
I0222 20:08:43.713734 21351 net.cpp:131] Setting up fc8
I0222 20:08:43.714205 21351 net.cpp:140] Top shape: 500 2 (1000)
I0222 20:08:43.714221 21351 layer_factory.hpp:75] Creating layer loss
I0222 20:08:43.714234 21351 net.cpp:99] Creating Layer loss
I0222 20:08:43.714241 21351 net.cpp:453] loss <- fc8
I0222 20:08:43.714249 21351 net.cpp:453] loss <- label
I0222 20:08:43.714262 21351 net.cpp:409] loss -> loss
I0222 20:08:43.714274 21351 net.cpp:131] Setting up loss
I0222 20:08:43.714285 21351 layer_factory.hpp:75] Creating layer loss
…
I0222 20:08:43.715785 21351 solver.cpp:167] Creating test net (#0) specified by net file: train_val.prototxt
I0222 20:08:43.715855 21351 net.cpp:316] The NetState phase (1) differed from the phase (0) specified by a rule in layer data
I0222 20:08:43.716331 21351 net.cpp:47] Initializing net from parameters:
state {
phase: TEST
}
layer {
name: "data"
type: "Data"
top: "data"
top: "label"
include {
phase: TEST
}
transform_param {
crop_size: 227
mean_value: 116.64558
}
data_param {
source: "/home/digits/DIGITS/digits/jobs/20160222-193359-de35/val_db"
batch_size: 500
backend: LMDB
}
}
layer {
name: "conv1"
type: "Convolution"
bottom: "data"
top: "conv1"
param {
lr_mult: 1
decay_mult: 1
}
param {
lr_mult: 2
decay_mult: 0
}
convolution_param {
num_output: 96
kernel_size: 11
stride: 4
weight_filler {
type: "gaussian"
std: 0.01
}
bias_filler {
type: "constant"
value: 0
}
}
}
layer {
name: "relu1"
type: "ReLU"
bottom: "conv1"
top: "conv1"
}
layer {
name: "norm1"
type: "LRN"
bottom: "conv1"
top: "norm1"
lrn_param {
local_size: 5
alpha: 0.0001
beta: 0.75
}
}
layer {
name: "pool1"
type: "Pooling"
bottom: "norm1"
top: "pool1"
pooling_param {
pool: MAX
kernel_size: 3
stride: 2
}
}
layer {
name: "conv2"
type: "Convolution"
bottom: "pool1"
top: "conv2"
param {
lr_mult: 1
decay_mult: 1
}
param {
lr_mult: 2
decay_mult: 0
}
convolution_param {
num_output: 256
pad: 2
kernel_size: 5
group: 2
weight_filler {
type: "gaussian"
std: 0.01
}
bias_filler {
type: "constant"
value: 0.1
}
}
}
layer {
name: "relu2"
type: "ReLU"
bottom: "conv2"
top: "conv2"
}
layer {
name: "norm2"
type: "LRN"
bottom: "conv2"
top: "norm2"
lrn_param {
local_size: 5
alpha: 0.0001
beta: 0.75
}
}
layer {
name: "pool2"
type: "Pooling"
bottom: "norm2"
top: "pool2"
pooling_param {
pool: MAX
kernel_size: 3
stride: 2
}
}
layer {
name: "conv3"
type: "Convolution"
bottom: "pool2"
top: "conv3"
param {
lr_mult: 1
decay_mult: 1
}
param {
lr_mult: 2
decay_mult: 0
}
convolution_param {
num_output: 384
pad: 1
kernel_size: 3
weight_filler {
type: "gaussian"
std: 0.01
}
bias_filler {
type: "constant"
value: 0
}
}
}
layer {
name: "relu3"
type: "ReLU"
bottom: "conv3"
top: "conv3"
}
layer {
name: "conv4"
type: "Convolution"
bottom: "conv3"
top: "conv4"
param {
lr_mult: 1
decay_mult: 1
}
param {
lr_mult: 2
decay_mult: 0
}
convolution_param {
num_output: 384
pad: 1
kernel_size: 3
group: 2
weight_filler {
type: "gaussian"
std: 0.01
}
bias_filler {
type: "constant"
value: 0.1
}
}
}
layer {
name: "relu4"
type: "ReLU"
bottom: "conv4"
top: "conv4"
}
layer {
name: "conv5"
type: "Convolution"
bottom: "conv4"
top: "conv5"
param {
lr_mult: 1
decay_mult: 1
}
param {
lr_mult: 2
decay_mult: 0
}
convolution_param {
num_output: 256
pad: 1
kernel_size: 3
group: 2
weight_filler {
type: "gaussian"
std: 0.01
}
bias_filler {
type: "constant"
value: 0.1
}
}
}
layer {
name: "relu5"
type: "ReLU"
bottom: "conv5"
top: "conv5"
}
layer {
name: "pool5"
type: "Pooling"
bottom: "conv5"
top: "pool5"
pooling_param {
pool: MAX
kernel_size: 3
stride: 2
}
}
layer {
name: "fc6"
type: "InnerProduct"
bottom: "pool5"
top: "fc6"
param {
lr_mult: 1
decay_mult: 1
}
param {
lr_mult: 2
decay_mult: 0
}
inner_product_param {
num_output: 4096
weight_filler {
type: "gaussian"
std: 0.005
}
bias_filler {
type: "constant"
value: 0.1
}
}
}
layer {
name: "relu6"
type: "ReLU"
bottom: "fc6"
top: "fc6"
}
layer {
name: "drop6"
type: "Dropout"
bottom: "fc6"
top: "fc6"
dropout_param {
dropout_ratio: 0.5
}
}
layer {
name: "fc7"
type: "InnerProduct"
bottom: "fc6"
top: "fc7"
param {
lr_mult: 1
decay_mult: 1
}
param {
lr_mult: 2
decay_mult: 0
}
inner_product_param {
num_output: 4096
weight_filler {
type: "gaussian"
std: 0.005
}
bias_filler {
type: "constant"
value: 0.1
}
}
}
layer {
name: "relu7"
type: "ReLU"
bottom: "fc7"
top: "fc7"
}
layer {
name: "drop7"
type: "Dropout"
bottom: "fc7"
top: "fc7"
dropout_param {
dropout_ratio: 0.5
}
}
layer {
name: "fc8"
type: "InnerProduct"
bottom: "fc7"
top: "fc8"
param {
lr_mult: 1
decay_mult: 1
}
param {
lr_mult: 2
decay_mult: 0
}
inner_product_param {
num_output: 2
weight_filler {
type: "gaussian"
std: 0.01
}
bias_filler {
type: "constant"
value: 0
}
}
}
layer {
name: "loss"
type: "SoftmaxWithLoss"
bottom: "fc8"
bottom: "label"
top: "loss"
}
layer {
name: "accuracy"
type: "Accuracy"
bottom: "fc8"
bottom: "label"
top: "accuracy"
include {
phase: TEST
}
}
I0222 20:08:43.716517 21351 layer_factory.hpp:75] Creating layer data
I0222 20:08:43.717016 21351 net.cpp:99] Creating Layer data
I0222 20:08:43.717036 21351 net.cpp:409] data -> data
I0222 20:08:43.717053 21351 net.cpp:409] data -> label
I0222 20:08:43.717066 21351 net.cpp:131] Setting up data
I0222 20:08:43.718135 21360 db.cpp:34] Opened lmdb /home/digits/DIGITS/digits/jobs/20160222-193359-de35/val_db
I0222 20:08:43.720682 21351 data_layer.cpp:37] Decoding Datum
I0222 20:08:43.720723 21351 data_layer.cpp:60] output data size: 500,1,227,227
I0222 20:08:43.968595 21351 net.cpp:140] Top shape: 500 1 227 227 (25764500)
I0222 20:08:43.968622 21351 net.cpp:140] Top shape: 500 (500)
I0222 20:08:43.968636 21351 layer_factory.hpp:75] Creating layer label_data_1_split
I0222 20:08:43.968654 21351 net.cpp:99] Creating Layer label_data_1_split
I0222 20:08:43.968663 21351 net.cpp:453] label_data_1_split <- label
I0222 20:08:43.968677 21351 net.cpp:409] label_data_1_split -> label_data_1_split_0
I0222 20:08:43.968696 21351 net.cpp:409] label_data_1_split -> label_data_1_split_1
I0222 20:08:43.968709 21351 net.cpp:131] Setting up label_data_1_split
I0222 20:08:43.968724 21351 net.cpp:140] Top shape: 500 (500)
I0222 20:08:43.968731 21351 net.cpp:140] Top shape: 500 (500)
I0222 20:08:43.968739 21351 layer_factory.hpp:75] Creating layer conv1
I0222 20:08:43.968755 21351 net.cpp:99] Creating Layer conv1
I0222 20:08:43.968761 21351 net.cpp:453] conv1 <- data
I0222 20:08:43.968772 21351 net.cpp:409] conv1 -> conv1
I0222 20:08:43.968787 21351 net.cpp:131] Setting up conv1
I0222 20:08:43.969458 21351 net.cpp:140] Top shape: 500 96 55 55 (145200000)
I0222 20:08:43.969480 21351 layer_factory.hpp:75] Creating layer relu1
I0222 20:08:43.969492 21351 net.cpp:99] Creating Layer relu1
I0222 20:08:43.969501 21351 net.cpp:453] relu1 <- conv1
I0222 20:08:43.969511 21351 net.cpp:396] relu1 -> conv1 (in-place)
I0222 20:08:43.969521 21351 net.cpp:131] Setting up relu1
I0222 20:08:43.969566 21351 net.cpp:140] Top shape: 500 96 55 55 (145200000)
I0222 20:08:43.969575 21351 layer_factory.hpp:75] Creating layer norm1
I0222 20:08:43.969590 21351 net.cpp:99] Creating Layer norm1
I0222 20:08:43.969599 21351 net.cpp:453] norm1 <- conv1
I0222 20:08:43.969609 21351 net.cpp:409] norm1 -> norm1
I0222 20:08:43.969620 21351 net.cpp:131] Setting up norm1
I0222 20:08:43.969632 21351 net.cpp:140] Top shape: 500 96 55 55 (145200000)
I0222 20:08:43.969640 21351 layer_factory.hpp:75] Creating layer pool1
I0222 20:08:43.969650 21351 net.cpp:99] Creating Layer pool1
I0222 20:08:43.969671 21351 net.cpp:453] pool1 <- norm1
I0222 20:08:43.969681 21351 net.cpp:409] pool1 -> pool1
I0222 20:08:43.969692 21351 net.cpp:131] Setting up pool1
I0222 20:08:43.969707 21351 net.cpp:140] Top shape: 500 96 27 27 (34992000)
I0222 20:08:43.969714 21351 layer_factory.hpp:75] Creating layer conv2
I0222 20:08:43.969734 21351 net.cpp:99] Creating Layer conv2
I0222 20:08:43.969743 21351 net.cpp:453] conv2 <- pool1
I0222 20:08:43.969754 21351 net.cpp:409] conv2 -> conv2
I0222 20:08:43.969766 21351 net.cpp:131] Setting up conv2
I0222 20:08:44.001444 21351 net.cpp:140] Top shape: 500 256 27 27 (93312000)
I0222 20:08:44.001484 21351 layer_factory.hpp:75] Creating layer relu2
I0222 20:08:44.001502 21351 net.cpp:99] Creating Layer relu2
I0222 20:08:44.001510 21351 net.cpp:453] relu2 <- conv2
I0222 20:08:44.001523 21351 net.cpp:396] relu2 -> conv2 (in-place)
I0222 20:08:44.001538 21351 net.cpp:131] Setting up relu2
I0222 20:08:44.001548 21351 net.cpp:140] Top shape: 500 256 27 27 (93312000)
I0222 20:08:44.001554 21351 layer_factory.hpp:75] Creating layer norm2
I0222 20:08:44.001569 21351 net.cpp:99] Creating Layer norm2
I0222 20:08:44.001576 21351 net.cpp:453] norm2 <- conv2
I0222 20:08:44.001586 21351 net.cpp:409] norm2 -> norm2
I0222 20:08:44.001600 21351 net.cpp:131] Setting up norm2
I0222 20:08:44.001615 21351 net.cpp:140] Top shape: 500 256 27 27 (93312000)
I0222 20:08:44.001622 21351 layer_factory.hpp:75] Creating layer pool2
I0222 20:08:44.001633 21351 net.cpp:99] Creating Layer pool2
I0222 20:08:44.001639 21351 net.cpp:453] pool2 <- norm2
I0222 20:08:44.001649 21351 net.cpp:409] pool2 -> pool2
I0222 20:08:44.001660 21351 net.cpp:131] Setting up pool2
I0222 20:08:44.001674 21351 net.cpp:140] Top shape: 500 256 13 13 (21632000)
I0222 20:08:44.001682 21351 layer_factory.hpp:75] Creating layer conv3
I0222 20:08:44.001695 21351 net.cpp:99] Creating Layer conv3
I0222 20:08:44.001703 21351 net.cpp:453] conv3 <- pool2
I0222 20:08:44.001713 21351 net.cpp:409] conv3 -> conv3
I0222 20:08:44.001732 21351 net.cpp:131] Setting up conv3
I0222 20:08:44.044993 21351 net.cpp:140] Top shape: 500 384 13 13 (32448000)
I0222 20:08:44.045028 21351 layer_factory.hpp:75] Creating layer relu3
I0222 20:08:44.045047 21351 net.cpp:99] Creating Layer relu3
I0222 20:08:44.045055 21351 net.cpp:453] relu3 <- conv3
I0222 20:08:44.045068 21351 net.cpp:396] relu3 -> conv3 (in-place)
I0222 20:08:44.045083 21351 net.cpp:131] Setting up relu3
I0222 20:08:44.045095 21351 net.cpp:140] Top shape: 500 384 13 13 (32448000)
I0222 20:08:44.045102 21351 layer_factory.hpp:75] Creating layer conv4
I0222 20:08:44.045115 21351 net.cpp:99] Creating Layer conv4
I0222 20:08:44.045123 21351 net.cpp:453] conv4 <- conv3
I0222 20:08:44.045135 21351 net.cpp:409] conv4 -> conv4
I0222 20:08:44.045147 21351 net.cpp:131] Setting up conv4
I0222 20:08:44.077561 21351 net.cpp:140] Top shape: 500 384 13 13 (32448000)
I0222 20:08:44.077599 21351 layer_factory.hpp:75] Creating layer relu4
I0222 20:08:44.077615 21351 net.cpp:99] Creating Layer relu4
I0222 20:08:44.077625 21351 net.cpp:453] relu4 <- conv4
I0222 20:08:44.077636 21351 net.cpp:396] relu4 -> conv4 (in-place)
I0222 20:08:44.077651 21351 net.cpp:131] Setting up relu4
I0222 20:08:44.077661 21351 net.cpp:140] Top shape: 500 384 13 13 (32448000)
I0222 20:08:44.077667 21351 layer_factory.hpp:75] Creating layer conv5
I0222 20:08:44.077680 21351 net.cpp:99] Creating Layer conv5
I0222 20:08:44.077687 21351 net.cpp:453] conv5 <- conv4
I0222 20:08:44.077746 21351 net.cpp:409] conv5 -> conv5
I0222 20:08:44.077762 21351 net.cpp:131] Setting up conv5
I0222 20:08:44.099423 21351 net.cpp:140] Top shape: 500 256 13 13 (21632000)
I0222 20:08:44.099462 21351 layer_factory.hpp:75] Creating layer relu5
I0222 20:08:44.099478 21351 net.cpp:99] Creating Layer relu5
I0222 20:08:44.099486 21351 net.cpp:453] relu5 <- conv5
I0222 20:08:44.099498 21351 net.cpp:396] relu5 -> conv5 (in-place)
I0222 20:08:44.099512 21351 net.cpp:131] Setting up relu5
I0222 20:08:44.099522 21351 net.cpp:140] Top shape: 500 256 13 13 (21632000)
I0222 20:08:44.099529 21351 layer_factory.hpp:75] Creating layer pool5
I0222 20:08:44.099545 21351 net.cpp:99] Creating Layer pool5
I0222 20:08:44.099551 21351 net.cpp:453] pool5 <- conv5
I0222 20:08:44.099561 21351 net.cpp:409] pool5 -> pool5
I0222 20:08:44.099573 21351 net.cpp:131] Setting up pool5
I0222 20:08:44.099588 21351 net.cpp:140] Top shape: 500 256 6 6 (4608000)
I0222 20:08:44.099596 21351 layer_factory.hpp:75] Creating layer fc6
I0222 20:08:44.099607 21351 net.cpp:99] Creating Layer fc6
I0222 20:08:44.099614 21351 net.cpp:453] fc6 <- pool5
I0222 20:08:44.099625 21351 net.cpp:409] fc6 -> fc6
I0222 20:08:44.099637 21351 net.cpp:131] Setting up fc6
I0222 20:08:45.925915 21351 net.cpp:140] Top shape: 500 4096 (2048000)
I0222 20:08:45.925951 21351 layer_factory.hpp:75] Creating layer relu6
I0222 20:08:45.925968 21351 net.cpp:99] Creating Layer relu6
I0222 20:08:45.925978 21351 net.cpp:453] relu6 <- fc6
I0222 20:08:45.925990 21351 net.cpp:396] relu6 -> fc6 (in-place)
I0222 20:08:45.926004 21351 net.cpp:131] Setting up relu6
I0222 20:08:45.926014 21351 net.cpp:140] Top shape: 500 4096 (2048000)
I0222 20:08:45.926022 21351 layer_factory.hpp:75] Creating layer drop6
I0222 20:08:45.926033 21351 net.cpp:99] Creating Layer drop6
I0222 20:08:45.926040 21351 net.cpp:453] drop6 <- fc6
I0222 20:08:45.926049 21351 net.cpp:396] drop6 -> fc6 (in-place)
I0222 20:08:45.926059 21351 net.cpp:131] Setting up drop6
I0222 20:08:45.926071 21351 net.cpp:140] Top shape: 500 4096 (2048000)
I0222 20:08:45.926079 21351 layer_factory.hpp:75] Creating layer fc7
I0222 20:08:45.926091 21351 net.cpp:99] Creating Layer fc7
I0222 20:08:45.926098 21351 net.cpp:453] fc7 <- fc6
I0222 20:08:45.926110 21351 net.cpp:409] fc7 -> fc7
I0222 20:08:45.926122 21351 net.cpp:131] Setting up fc7
I0222 20:08:46.736901 21351 net.cpp:140] Top shape: 500 4096 (2048000)
I0222 20:08:46.736935 21351 layer_factory.hpp:75] Creating layer relu7
I0222 20:08:46.736953 21351 net.cpp:99] Creating Layer relu7
I0222 20:08:46.736961 21351 net.cpp:453] relu7 <- fc7
I0222 20:08:46.736974 21351 net.cpp:396] relu7 -> fc7 (in-place)
I0222 20:08:46.736987 21351 net.cpp:131] Setting up relu7
I0222 20:08:46.736997 21351 net.cpp:140] Top shape: 500 4096 (2048000)
I0222 20:08:46.737005 21351 layer_factory.hpp:75] Creating layer drop7
I0222 20:08:46.737015 21351 net.cpp:99] Creating Layer drop7
I0222 20:08:46.737022 21351 net.cpp:453] drop7 <- fc7
I0222 20:08:46.737032 21351 net.cpp:396] drop7 -> fc7 (in-place)
I0222 20:08:46.737041 21351 net.cpp:131] Setting up drop7
I0222 20:08:46.737053 21351 net.cpp:140] Top shape: 500 4096 (2048000)
I0222 20:08:46.737061 21351 layer_factory.hpp:75] Creating layer fc8
I0222 20:08:46.737073 21351 net.cpp:99] Creating Layer fc8
I0222 20:08:46.737081 21351 net.cpp:453] fc8 <- fc7
I0222 20:08:46.737090 21351 net.cpp:409] fc8 -> fc8
I0222 20:08:46.737108 21351 net.cpp:131] Setting up fc8
I0222 20:08:46.737587 21351 net.cpp:140] Top shape: 500 2 (1000)
I0222 20:08:46.737604 21351 layer_factory.hpp:75] Creating layer fc8_fc8_0_split
I0222 20:08:46.737617 21351 net.cpp:99] Creating Layer fc8_fc8_0_split
I0222 20:08:46.737623 21351 net.cpp:453] fc8_fc8_0_split <- fc8
I0222 20:08:46.737633 21351 net.cpp:409] fc8_fc8_0_split -> fc8_fc8_0_split_0
I0222 20:08:46.737646 21351 net.cpp:409] fc8_fc8_0_split -> fc8_fc8_0_split_1
I0222 20:08:46.737658 21351 net.cpp:131] Setting up fc8_fc8_0_split
I0222 20:08:46.737668 21351 net.cpp:140] Top shape: 500 2 (1000)
I0222 20:08:46.737715 21351 net.cpp:140] Top shape: 500 2 (1000)
I0222 20:08:46.737730 21351 layer_factory.hpp:75] Creating layer loss
I0222 20:08:46.737742 21351 net.cpp:99] Creating Layer loss
I0222 20:08:46.737751 21351 net.cpp:453] loss <- fc8_fc8_0_split_0
I0222 20:08:46.737758 21351 net.cpp:453] loss <- label_data_1_split_0
I0222 20:08:46.737768 21351 net.cpp:409] loss -> loss
I0222 20:08:46.737781 21351 net.cpp:131] Setting up loss
I0222 20:08:46.737790 21351 layer_factory.hpp:75] Creating layer loss
…
