…
I0219 00:45:05.598309  2895 solver.cpp:91] Creating training net from net file: /home/npellejero/tesis/AMFED/redes/alex/train_val.prototxt
I0219 00:45:05.599369  2895 net.cpp:322] The NetState phase (0) differed from the phase (1) specified by a rule in layer data
I0219 00:45:05.599877  2895 net.cpp:49] Initializing net from parameters: 
name: "AlexNet"
state {
  phase: TRAIN
}
layer {
  name: "data"
  type: "HDF5Data"
  top: "data"
  top: "label"
  include {
    phase: TRAIN
  }
  hdf5_data_param {
    source: "/home/npellejero/tesis/AMFED/redes/pruebaBD/train.h5list"
    batch_size: 500
  }
}
layer {
  name: "conv1"
  type: "Convolution"
  bottom: "data"
  top: "conv1"
  param {
    lr_mult: 1
    decay_mult: 1
  }
  param {
    lr_mult: 2
    decay_mult: 0
  }
  convolution_param {
    num_output: 96
    kernel_size: 11
    stride: 4
    weight_filler {
      type: "gaussian"
      std: 0.01
    }
    bias_filler {
      type: "constant"
      value: 0
    }
  }
}
layer {
  name: "relu1"
  type: "ReLU"
  bottom: "conv1"
  top: "conv1"
}
layer {
  name: "norm1"
  type: "LRN"
  bottom: "conv1"
  top: "norm1"
  lrn_param {
    local_size: 5
    alpha: 0.0001
    beta: 0.75
  }
}
layer {
  name: "pool1"
  type: "Pooling"
  bottom: "norm1"
  top: "pool1"
  pooling_param {
    pool: MAX
    kernel_size: 3
    stride: 2
  }
}
layer {
  name: "conv2"
  type: "Convolution"
  bottom: "pool1"
  top: "conv2"
  param {
    lr_mult: 1
    decay_mult: 1
  }
  param {
    lr_mult: 2
    decay_mult: 0
  }
  convolution_param {
    num_output: 256
    pad: 2
    kernel_size: 5
    group: 2
    weight_filler {
      type: "gaussian"
      std: 0.01
    }
    bias_filler {
      type: "constant"
      value: 0.1
    }
  }
}
layer {
  name: "relu2"
  type: "ReLU"
  bottom: "conv2"
  top: "conv2"
}
layer {
  name: "norm2"
  type: "LRN"
  bottom: "conv2"
  top: "norm2"
  lrn_param {
    local_size: 5
    alpha: 0.0001
    beta: 0.75
  }
}
layer {
  name: "pool2"
  type: "Pooling"
  bottom: "norm2"
  top: "pool2"
  pooling_param {
    pool: MAX
    kernel_size: 3
    stride: 2
  }
}
layer {
  name: "conv3"
  type: "Convolution"
  bottom: "pool2"
  top: "conv3"
  param {
    lr_mult: 1
    decay_mult: 1
  }
  param {
    lr_mult: 2
    decay_mult: 0
  }
  convolution_param {
    num_output: 384
    pad: 1
    kernel_size: 3
    weight_filler {
      type: "gaussian"
      std: 0.01
    }
    bias_filler {
      type: "constant"
      value: 0
    }
  }
}
layer {
  name: "relu3"
  type: "ReLU"
  bottom: "conv3"
  top: "conv3"
}
layer {
  name: "conv4"
  type: "Convolution"
  bottom: "conv3"
  top: "conv4"
  param {
    lr_mult: 1
    decay_mult: 1
  }
  param {
    lr_mult: 2
    decay_mult: 0
  }
  convolution_param {
    num_output: 384
    pad: 1
    kernel_size: 3
    group: 2
    weight_filler {
      type: "gaussian"
      std: 0.01
    }
    bias_filler {
      type: "constant"
      value: 0.1
    }
  }
}
layer {
  name: "relu4"
  type: "ReLU"
  bottom: "conv4"
  top: "conv4"
}
layer {
  name: "conv5"
  type: "Convolution"
  bottom: "conv4"
  top: "conv5"
  param {
    lr_mult: 1
    decay_mult: 1
  }
  param {
    lr_mult: 2
    decay_mult: 0
  }
  convolution_param {
    num_output: 256
    pad: 1
    kernel_size: 3
    group: 2
    weight_filler {
      type: "gaussian"
      std: 0.01
    }
    bias_filler {
      type: "constant"
      value: 0.1
    }
  }
}
layer {
  name: "relu5"
  type: "ReLU"
  bottom: "conv5"
  top: "conv5"
}
layer {
  name: "pool5"
  type: "Pooling"
  bottom: "conv5"
  top: "pool5"
  pooling_param {
    pool: MAX
    kernel_size: 3
    stride: 2
  }
}
layer {
  name: "fc6"
  type: "InnerProduct"
  bottom: "pool5"
  top: "fc6"
  param {
    lr_mult: 1
    decay_mult: 1
  }
  param {
    lr_mult: 2
    decay_mult: 0
  }
  inner_product_param {
    num_output: 4096
    weight_filler {
      type: "gaussian"
      std: 0.005
    }
    bias_filler {
      type: "constant"
      value: 0.1
    }
  }
}
layer {
  name: "relu6"
  type: "ReLU"
  bottom: "fc6"
  top: "fc6"
}
layer {
  name: "drop6"
  type: "Dropout"
  bottom: "fc6"
  top: "fc6"
  dropout_param {
    dropout_ratio: 0.5
  }
}
layer {
  name: "fc7"
  type: "InnerProduct"
  bottom: "fc6"
  top: "fc7"
  param {
    lr_mult: 1
    decay_mult: 1
  }
  param {
    lr_mult: 2
    decay_mult: 0
  }
  inner_product_param {
    num_output: 4096
    weight_filler {
      type: "gaussian"
      std: 0.005
    }
    bias_filler {
      type: "constant"
      value: 0.1
    }
  }
}
layer {
  name: "relu7"
  type: "ReLU"
  bottom: "fc7"
  top: "fc7"
}
layer {
  name: "drop7"
  type: "Dropout"
  bottom: "fc7"
  top: "fc7"
  dropout_param {
    dropout_ratio: 0.5
  }
}
layer {
  name: "fc8"
  type: "InnerProduct"
  bottom: "fc7"
  top: "fc8"
  param {
    lr_mult: 1
    decay_mult: 1
  }
  param {
    lr_mult: 2
    decay_mult: 0
  }
  inner_product_param {
    num_output: 19
    weight_filler {
      type: "gaussian"
      std: 0.01
    }
    bias_filler {
      type: "constant"
      value: 0
    }
  }
}
layer {
  name: "loss"
  type: "EuclideanLoss"
  bottom: "fc8"
  bottom: "label"
  top: "loss"
}
I0219 00:45:05.600080  2895 layer_factory.hpp:77] Creating layer data
I0219 00:45:05.600111  2895 net.cpp:106] Creating Layer data
I0219 00:45:05.600126  2895 net.cpp:411] data -> data
I0219 00:45:05.600163  2895 net.cpp:411] data -> label
I0219 00:45:05.600189  2895 hdf5_data_layer.cpp:79] Loading list of HDF5 filenames from: /home/npellejero/tesis/AMFED/redes/pruebaBD/train.h5list
I0219 00:45:05.600237  2895 hdf5_data_layer.cpp:93] Number of HDF5 files: 6
I0219 00:45:05.602006  2895 hdf5.cpp:32] Datatype class: H5T_FLOAT
I0219 00:45:35.236934  2895 net.cpp:150] Setting up data
I0219 00:45:35.272274  2895 net.cpp:157] Top shape: 500 1 240 320 (38400000)
I0219 00:45:35.272306  2895 net.cpp:157] Top shape: 500 19 (9500)
I0219 00:45:35.272317  2895 net.cpp:165] Memory required for data: 153638000
I0219 00:45:35.272336  2895 layer_factory.hpp:77] Creating layer conv1
I0219 00:45:35.272374  2895 net.cpp:106] Creating Layer conv1
I0219 00:45:35.272389  2895 net.cpp:454] conv1 <- data
I0219 00:45:35.272415  2895 net.cpp:411] conv1 -> conv1
I0219 00:45:35.464558  2895 net.cpp:150] Setting up conv1
I0219 00:45:35.464622  2895 net.cpp:157] Top shape: 500 96 58 78 (217152000)
I0219 00:45:35.464633  2895 net.cpp:165] Memory required for data: 1022246000
I0219 00:45:35.464666  2895 layer_factory.hpp:77] Creating layer relu1
I0219 00:45:35.464690  2895 net.cpp:106] Creating Layer relu1
I0219 00:45:35.464702  2895 net.cpp:454] relu1 <- conv1
I0219 00:45:35.464717  2895 net.cpp:397] relu1 -> conv1 (in-place)
I0219 00:45:35.465124  2895 net.cpp:150] Setting up relu1
I0219 00:45:35.465150  2895 net.cpp:157] Top shape: 500 96 58 78 (217152000)
I0219 00:45:35.465162  2895 net.cpp:165] Memory required for data: 1890854000
I0219 00:45:35.465173  2895 layer_factory.hpp:77] Creating layer norm1
I0219 00:45:35.465193  2895 net.cpp:106] Creating Layer norm1
I0219 00:45:35.465204  2895 net.cpp:454] norm1 <- conv1
I0219 00:45:35.465219  2895 net.cpp:411] norm1 -> norm1
I0219 00:45:35.465523  2895 net.cpp:150] Setting up norm1
I0219 00:45:35.465548  2895 net.cpp:157] Top shape: 500 96 58 78 (217152000)
I0219 00:45:35.465558  2895 net.cpp:165] Memory required for data: 2759462000
I0219 00:45:35.465569  2895 layer_factory.hpp:77] Creating layer pool1
I0219 00:45:35.465585  2895 net.cpp:106] Creating Layer pool1
I0219 00:45:35.465596  2895 net.cpp:454] pool1 <- norm1
I0219 00:45:35.465610  2895 net.cpp:411] pool1 -> pool1
I0219 00:45:35.466089  2895 net.cpp:150] Setting up pool1
I0219 00:45:35.466117  2895 net.cpp:157] Top shape: 500 96 29 39 (54288000)
I0219 00:45:35.466127  2895 net.cpp:165] Memory required for data: 2976614000
I0219 00:45:35.466152  2895 layer_factory.hpp:77] Creating layer conv2
I0219 00:45:35.466176  2895 net.cpp:106] Creating Layer conv2
I0219 00:45:35.466187  2895 net.cpp:454] conv2 <- pool1
I0219 00:45:35.466202  2895 net.cpp:411] conv2 -> conv2
I0219 00:45:35.484382  2895 net.cpp:150] Setting up conv2
I0219 00:45:35.484433  2895 net.cpp:157] Top shape: 500 256 29 39 (144768000)
I0219 00:45:35.484444  2895 net.cpp:165] Memory required for data: 3555686000
I0219 00:45:35.484469  2895 layer_factory.hpp:77] Creating layer relu2
I0219 00:45:35.484488  2895 net.cpp:106] Creating Layer relu2
I0219 00:45:35.484499  2895 net.cpp:454] relu2 <- conv2
I0219 00:45:35.484514  2895 net.cpp:397] relu2 -> conv2 (in-place)
I0219 00:45:35.484786  2895 net.cpp:150] Setting up relu2
I0219 00:45:35.484808  2895 net.cpp:157] Top shape: 500 256 29 39 (144768000)
I0219 00:45:35.484817  2895 net.cpp:165] Memory required for data: 4134758000
I0219 00:45:35.484828  2895 layer_factory.hpp:77] Creating layer norm2
I0219 00:45:35.484844  2895 net.cpp:106] Creating Layer norm2
I0219 00:45:35.484854  2895 net.cpp:454] norm2 <- conv2
I0219 00:45:35.484869  2895 net.cpp:411] norm2 -> norm2
I0219 00:45:35.485330  2895 net.cpp:150] Setting up norm2
I0219 00:45:35.485355  2895 net.cpp:157] Top shape: 500 256 29 39 (144768000)
I0219 00:45:35.485365  2895 net.cpp:165] Memory required for data: 4713830000
I0219 00:45:35.485376  2895 layer_factory.hpp:77] Creating layer pool2
I0219 00:45:35.485394  2895 net.cpp:106] Creating Layer pool2
I0219 00:45:35.485404  2895 net.cpp:454] pool2 <- norm2
I0219 00:45:35.485417  2895 net.cpp:411] pool2 -> pool2
I0219 00:45:35.485749  2895 net.cpp:150] Setting up pool2
I0219 00:45:35.485774  2895 net.cpp:157] Top shape: 500 256 14 19 (34048000)
I0219 00:45:35.485783  2895 net.cpp:165] Memory required for data: 4850022000
I0219 00:45:35.485792  2895 layer_factory.hpp:77] Creating layer conv3
I0219 00:45:35.485816  2895 net.cpp:106] Creating Layer conv3
I0219 00:45:35.485828  2895 net.cpp:454] conv3 <- pool2
I0219 00:45:35.485846  2895 net.cpp:411] conv3 -> conv3
I0219 00:45:35.531405  2895 net.cpp:150] Setting up conv3
I0219 00:45:35.531467  2895 net.cpp:157] Top shape: 500 384 14 19 (51072000)
I0219 00:45:35.531478  2895 net.cpp:165] Memory required for data: 5054310000
I0219 00:45:35.531507  2895 layer_factory.hpp:77] Creating layer relu3
I0219 00:45:35.531527  2895 net.cpp:106] Creating Layer relu3
I0219 00:45:35.531538  2895 net.cpp:454] relu3 <- conv3
I0219 00:45:35.531555  2895 net.cpp:397] relu3 -> conv3 (in-place)
I0219 00:45:35.531983  2895 net.cpp:150] Setting up relu3
I0219 00:45:35.532008  2895 net.cpp:157] Top shape: 500 384 14 19 (51072000)
I0219 00:45:35.532017  2895 net.cpp:165] Memory required for data: 5258598000
I0219 00:45:35.532027  2895 layer_factory.hpp:77] Creating layer conv4
I0219 00:45:35.532053  2895 net.cpp:106] Creating Layer conv4
I0219 00:45:35.532065  2895 net.cpp:454] conv4 <- conv3
I0219 00:45:35.532080  2895 net.cpp:411] conv4 -> conv4
I0219 00:45:35.567169  2895 net.cpp:150] Setting up conv4
I0219 00:45:35.567219  2895 net.cpp:157] Top shape: 500 384 14 19 (51072000)
I0219 00:45:35.567229  2895 net.cpp:165] Memory required for data: 5462886000
I0219 00:45:35.567247  2895 layer_factory.hpp:77] Creating layer relu4
I0219 00:45:35.567266  2895 net.cpp:106] Creating Layer relu4
I0219 00:45:35.567277  2895 net.cpp:454] relu4 <- conv4
I0219 00:45:35.567292  2895 net.cpp:397] relu4 -> conv4 (in-place)
I0219 00:45:35.567719  2895 net.cpp:150] Setting up relu4
I0219 00:45:35.567744  2895 net.cpp:157] Top shape: 500 384 14 19 (51072000)
I0219 00:45:35.567754  2895 net.cpp:165] Memory required for data: 5667174000
I0219 00:45:35.567764  2895 layer_factory.hpp:77] Creating layer conv5
I0219 00:45:35.567786  2895 net.cpp:106] Creating Layer conv5
I0219 00:45:35.567798  2895 net.cpp:454] conv5 <- conv4
I0219 00:45:35.567816  2895 net.cpp:411] conv5 -> conv5
I0219 00:45:35.592157  2895 net.cpp:150] Setting up conv5
I0219 00:45:35.592206  2895 net.cpp:157] Top shape: 500 256 14 19 (34048000)
I0219 00:45:35.592229  2895 net.cpp:165] Memory required for data: 5803366000
I0219 00:45:35.592257  2895 layer_factory.hpp:77] Creating layer relu5
I0219 00:45:35.592273  2895 net.cpp:106] Creating Layer relu5
I0219 00:45:35.592284  2895 net.cpp:454] relu5 <- conv5
I0219 00:45:35.592299  2895 net.cpp:397] relu5 -> conv5 (in-place)
I0219 00:45:35.592737  2895 net.cpp:150] Setting up relu5
I0219 00:45:35.592761  2895 net.cpp:157] Top shape: 500 256 14 19 (34048000)
I0219 00:45:35.592772  2895 net.cpp:165] Memory required for data: 5939558000
I0219 00:45:35.592782  2895 layer_factory.hpp:77] Creating layer pool5
I0219 00:45:35.592797  2895 net.cpp:106] Creating Layer pool5
I0219 00:45:35.592806  2895 net.cpp:454] pool5 <- conv5
I0219 00:45:35.592820  2895 net.cpp:411] pool5 -> pool5
I0219 00:45:35.593145  2895 net.cpp:150] Setting up pool5
I0219 00:45:35.593169  2895 net.cpp:157] Top shape: 500 256 7 9 (8064000)
I0219 00:45:35.593178  2895 net.cpp:165] Memory required for data: 5971814000
I0219 00:45:35.593189  2895 layer_factory.hpp:77] Creating layer fc6
I0219 00:45:35.593211  2895 net.cpp:106] Creating Layer fc6
I0219 00:45:35.593222  2895 net.cpp:454] fc6 <- pool5
I0219 00:45:35.593236  2895 net.cpp:411] fc6 -> fc6
I0219 00:45:38.813092  2895 net.cpp:150] Setting up fc6
I0219 00:45:38.813159  2895 net.cpp:157] Top shape: 500 4096 (2048000)
I0219 00:45:38.813169  2895 net.cpp:165] Memory required for data: 5980006000
I0219 00:45:38.813190  2895 layer_factory.hpp:77] Creating layer relu6
I0219 00:45:38.813210  2895 net.cpp:106] Creating Layer relu6
I0219 00:45:38.813222  2895 net.cpp:454] relu6 <- fc6
I0219 00:45:38.813241  2895 net.cpp:397] relu6 -> fc6 (in-place)
I0219 00:45:38.813814  2895 net.cpp:150] Setting up relu6
I0219 00:45:38.813843  2895 net.cpp:157] Top shape: 500 4096 (2048000)
I0219 00:45:38.813854  2895 net.cpp:165] Memory required for data: 5988198000
I0219 00:45:38.813864  2895 layer_factory.hpp:77] Creating layer drop6
I0219 00:45:38.813880  2895 net.cpp:106] Creating Layer drop6
I0219 00:45:38.813890  2895 net.cpp:454] drop6 <- fc6
I0219 00:45:38.813927  2895 net.cpp:397] drop6 -> fc6 (in-place)
I0219 00:45:38.813987  2895 net.cpp:150] Setting up drop6
I0219 00:45:38.814005  2895 net.cpp:157] Top shape: 500 4096 (2048000)
I0219 00:45:38.814014  2895 net.cpp:165] Memory required for data: 5996390000
I0219 00:45:38.814024  2895 layer_factory.hpp:77] Creating layer fc7
I0219 00:45:38.814054  2895 net.cpp:106] Creating Layer fc7
I0219 00:45:38.814066  2895 net.cpp:454] fc7 <- fc6
I0219 00:45:38.814084  2895 net.cpp:411] fc7 -> fc7
I0219 00:45:39.632194  2895 net.cpp:150] Setting up fc7
I0219 00:45:39.632258  2895 net.cpp:157] Top shape: 500 4096 (2048000)
I0219 00:45:39.632269  2895 net.cpp:165] Memory required for data: 6004582000
I0219 00:45:39.632290  2895 layer_factory.hpp:77] Creating layer relu7
I0219 00:45:39.632310  2895 net.cpp:106] Creating Layer relu7
I0219 00:45:39.632321  2895 net.cpp:454] relu7 <- fc7
I0219 00:45:39.632338  2895 net.cpp:397] relu7 -> fc7 (in-place)
I0219 00:45:39.632674  2895 net.cpp:150] Setting up relu7
I0219 00:45:39.632699  2895 net.cpp:157] Top shape: 500 4096 (2048000)
I0219 00:45:39.632709  2895 net.cpp:165] Memory required for data: 6012774000
I0219 00:45:39.632719  2895 layer_factory.hpp:77] Creating layer drop7
I0219 00:45:39.632736  2895 net.cpp:106] Creating Layer drop7
I0219 00:45:39.632747  2895 net.cpp:454] drop7 <- fc7
I0219 00:45:39.632761  2895 net.cpp:397] drop7 -> fc7 (in-place)
I0219 00:45:39.632817  2895 net.cpp:150] Setting up drop7
I0219 00:45:39.632836  2895 net.cpp:157] Top shape: 500 4096 (2048000)
I0219 00:45:39.632845  2895 net.cpp:165] Memory required for data: 6020966000
I0219 00:45:39.632856  2895 layer_factory.hpp:77] Creating layer fc8
I0219 00:45:39.632876  2895 net.cpp:106] Creating Layer fc8
I0219 00:45:39.632889  2895 net.cpp:454] fc8 <- fc7
I0219 00:45:39.632902  2895 net.cpp:411] fc8 -> fc8
I0219 00:45:39.637527  2895 net.cpp:150] Setting up fc8
I0219 00:45:39.637554  2895 net.cpp:157] Top shape: 500 19 (9500)
I0219 00:45:39.637576  2895 net.cpp:165] Memory required for data: 6021004000
I0219 00:45:39.637593  2895 layer_factory.hpp:77] Creating layer loss
I0219 00:45:39.637608  2895 net.cpp:106] Creating Layer loss
I0219 00:45:39.637617  2895 net.cpp:454] loss <- fc8
I0219 00:45:39.637629  2895 net.cpp:454] loss <- label
I0219 00:45:39.637645  2895 net.cpp:411] loss -> loss
I0219 00:45:39.637729  2895 net.cpp:150] Setting up loss
…
I0219 00:45:39.639127  2895 solver.cpp:181] Creating test net (#0) specified by net file: /home/npellejero/tesis/AMFED/redes/alex/train_val.prototxt
I0219 00:45:39.639200  2895 net.cpp:322] The NetState phase (1) differed from the phase (0) specified by a rule in layer data
I0219 00:45:39.639693  2895 net.cpp:49] Initializing net from parameters: 
name: "AlexNet"
state {
  phase: TEST
}
layer {
  name: "data"
  type: "HDF5Data"
  top: "data"
  top: "label"
  include {
    phase: TEST
  }
  hdf5_data_param {
    source: "/home/npellejero/tesis/AMFED/redes/pruebaBD/test.h5list"
    batch_size: 200
  }
}
layer {
  name: "conv1"
  type: "Convolution"
  bottom: "data"
  top: "conv1"
  param {
    lr_mult: 1
    decay_mult: 1
  }
  param {
    lr_mult: 2
    decay_mult: 0
  }
  convolution_param {
    num_output: 96
    kernel_size: 11
    stride: 4
    weight_filler {
      type: "gaussian"
      std: 0.01
    }
    bias_filler {
      type: "constant"
      value: 0
    }
  }
}
layer {
  name: "relu1"
  type: "ReLU"
  bottom: "conv1"
  top: "conv1"
}
layer {
  name: "norm1"
  type: "LRN"
  bottom: "conv1"
  top: "norm1"
  lrn_param {
    local_size: 5
    alpha: 0.0001
    beta: 0.75
  }
}
layer {
  name: "pool1"
  type: "Pooling"
  bottom: "norm1"
  top: "pool1"
  pooling_param {
    pool: MAX
    kernel_size: 3
    stride: 2
  }
}
layer {
  name: "conv2"
  type: "Convolution"
  bottom: "pool1"
  top: "conv2"
  param {
    lr_mult: 1
    decay_mult: 1
  }
  param {
    lr_mult: 2
    decay_mult: 0
  }
  convolution_param {
    num_output: 256
    pad: 2
    kernel_size: 5
    group: 2
    weight_filler {
      type: "gaussian"
      std: 0.01
    }
    bias_filler {
      type: "constant"
      value: 0.1
    }
  }
}
layer {
  name: "relu2"
  type: "ReLU"
  bottom: "conv2"
  top: "conv2"
}
layer {
  name: "norm2"
  type: "LRN"
  bottom: "conv2"
  top: "norm2"
  lrn_param {
    local_size: 5
    alpha: 0.0001
    beta: 0.75
  }
}
layer {
  name: "pool2"
  type: "Pooling"
  bottom: "norm2"
  top: "pool2"
  pooling_param {
    pool: MAX
    kernel_size: 3
    stride: 2
  }
}
layer {
  name: "conv3"
  type: "Convolution"
  bottom: "pool2"
  top: "conv3"
  param {
    lr_mult: 1
    decay_mult: 1
  }
  param {
    lr_mult: 2
    decay_mult: 0
  }
  convolution_param {
    num_output: 384
    pad: 1
    kernel_size: 3
    weight_filler {
      type: "gaussian"
      std: 0.01
    }
    bias_filler {
      type: "constant"
      value: 0
    }
  }
}
layer {
  name: "relu3"
  type: "ReLU"
  bottom: "conv3"
  top: "conv3"
}
layer {
  name: "conv4"
  type: "Convolution"
  bottom: "conv3"
  top: "conv4"
  param {
    lr_mult: 1
    decay_mult: 1
  }
  param {
    lr_mult: 2
    decay_mult: 0
  }
  convolution_param {
    num_output: 384
    pad: 1
    kernel_size: 3
    group: 2
    weight_filler {
      type: "gaussian"
      std: 0.01
    }
    bias_filler {
      type: "constant"
      value: 0.1
    }
  }
}
layer {
  name: "relu4"
  type: "ReLU"
  bottom: "conv4"
  top: "conv4"
}
layer {
  name: "conv5"
  type: "Convolution"
  bottom: "conv4"
  top: "conv5"
  param {
    lr_mult: 1
    decay_mult: 1
  }
  param {
    lr_mult: 2
    decay_mult: 0
  }
  convolution_param {
    num_output: 256
    pad: 1
    kernel_size: 3
    group: 2
    weight_filler {
      type: "gaussian"
      std: 0.01
    }
    bias_filler {
      type: "constant"
      value: 0.1
    }
  }
}
layer {
  name: "relu5"
  type: "ReLU"
  bottom: "conv5"
  top: "conv5"
}
layer {
  name: "pool5"
  type: "Pooling"
  bottom: "conv5"
  top: "pool5"
  pooling_param {
    pool: MAX
    kernel_size: 3
    stride: 2
  }
}
layer {
  name: "fc6"
  type: "InnerProduct"
  bottom: "pool5"
  top: "fc6"
  param {
    lr_mult: 1
    decay_mult: 1
  }
  param {
    lr_mult: 2
    decay_mult: 0
  }
  inner_product_param {
    num_output: 4096
    weight_filler {
      type: "gaussian"
      std: 0.005
    }
    bias_filler {
      type: "constant"
      value: 0.1
    }
  }
}
layer {
  name: "relu6"
  type: "ReLU"
  bottom: "fc6"
  top: "fc6"
}
layer {
  name: "drop6"
  type: "Dropout"
  bottom: "fc6"
  top: "fc6"
  dropout_param {
    dropout_ratio: 0.5
  }
}
layer {
  name: "fc7"
  type: "InnerProduct"
  bottom: "fc6"
  top: "fc7"
  param {
    lr_mult: 1
    decay_mult: 1
  }
  param {
    lr_mult: 2
    decay_mult: 0
  }
  inner_product_param {
    num_output: 4096
    weight_filler {
      type: "gaussian"
      std: 0.005
    }
    bias_filler {
      type: "constant"
      value: 0.1
    }
  }
}
layer {
  name: "relu7"
  type: "ReLU"
  bottom: "fc7"
  top: "fc7"
}
layer {
  name: "drop7"
  type: "Dropout"
  bottom: "fc7"
  top: "fc7"
  dropout_param {
    dropout_ratio: 0.5
  }
}
layer {
  name: "fc8"
  type: "InnerProduct"
  bottom: "fc7"
  top: "fc8"
  param {
    lr_mult: 1
    decay_mult: 1
  }
  param {
    lr_mult: 2
    decay_mult: 0
  }
  inner_product_param {
    num_output: 19
    weight_filler {
      type: "gaussian"
      std: 0.01
    }
    bias_filler {
      type: "constant"
      value: 0
    }
  }
}
layer {
  name: "loss"
  type: "EuclideanLoss"
  bottom: "fc8"
  bottom: "label"
  top: "loss"
}
I0219 00:45:39.639847  2895 layer_factory.hpp:77] Creating layer data
I0219 00:45:39.639870  2895 net.cpp:106] Creating Layer data
I0219 00:45:39.639883  2895 net.cpp:411] data -> data
I0219 00:45:39.639900  2895 net.cpp:411] data -> label
I0219 00:45:39.639917  2895 hdf5_data_layer.cpp:79] Loading list of HDF5 filenames from: /home/npellejero/tesis/AMFED/redes/pruebaBD/test.h5list
I0219 00:45:39.639950  2895 hdf5_data_layer.cpp:93] Number of HDF5 files: 1
I0219 00:46:32.793768  2895 net.cpp:150] Setting up data
I0219 00:46:32.851876  2895 net.cpp:157] Top shape: 200 1 240 320 (15360000)
I0219 00:46:32.851903  2895 net.cpp:157] Top shape: 200 19 (3800)
I0219 00:46:32.851917  2895 net.cpp:165] Memory required for data: 61455200
I0219 00:46:32.851939  2895 layer_factory.hpp:77] Creating layer conv1
I0219 00:46:32.851985  2895 net.cpp:106] Creating Layer conv1
I0219 00:46:32.852002  2895 net.cpp:454] conv1 <- data
I0219 00:46:32.852025  2895 net.cpp:411] conv1 -> conv1
I0219 00:46:32.854903  2895 net.cpp:150] Setting up conv1
I0219 00:46:32.854938  2895 net.cpp:157] Top shape: 200 96 58 78 (86860800)
I0219 00:46:32.854953  2895 net.cpp:165] Memory required for data: 408898400
I0219 00:46:32.854982  2895 layer_factory.hpp:77] Creating layer relu1
I0219 00:46:32.855005  2895 net.cpp:106] Creating Layer relu1
I0219 00:46:32.855020  2895 net.cpp:454] relu1 <- conv1
I0219 00:46:32.855036  2895 net.cpp:397] relu1 -> conv1 (in-place)
I0219 00:46:32.855557  2895 net.cpp:150] Setting up relu1
I0219 00:46:32.855589  2895 net.cpp:157] Top shape: 200 96 58 78 (86860800)
I0219 00:46:32.855603  2895 net.cpp:165] Memory required for data: 756341600
I0219 00:46:32.855618  2895 layer_factory.hpp:77] Creating layer norm1
I0219 00:46:32.855639  2895 net.cpp:106] Creating Layer norm1
I0219 00:46:32.855654  2895 net.cpp:454] norm1 <- conv1
I0219 00:46:32.855671  2895 net.cpp:411] norm1 -> norm1
I0219 00:46:32.856073  2895 net.cpp:150] Setting up norm1
I0219 00:46:32.856102  2895 net.cpp:157] Top shape: 200 96 58 78 (86860800)
I0219 00:46:32.856115  2895 net.cpp:165] Memory required for data: 1103784800
I0219 00:46:32.856130  2895 layer_factory.hpp:77] Creating layer pool1
I0219 00:46:32.856153  2895 net.cpp:106] Creating Layer pool1
I0219 00:46:32.856168  2895 net.cpp:454] pool1 <- norm1
I0219 00:46:32.856185  2895 net.cpp:411] pool1 -> pool1
I0219 00:46:32.856770  2895 net.cpp:150] Setting up pool1
I0219 00:46:32.856801  2895 net.cpp:157] Top shape: 200 96 29 39 (21715200)
I0219 00:46:32.856815  2895 net.cpp:165] Memory required for data: 1190645600
I0219 00:46:32.856829  2895 layer_factory.hpp:77] Creating layer conv2
I0219 00:46:32.856854  2895 net.cpp:106] Creating Layer conv2
I0219 00:46:32.856869  2895 net.cpp:454] conv2 <- pool1
I0219 00:46:32.856889  2895 net.cpp:411] conv2 -> conv2
I0219 00:46:32.875298  2895 net.cpp:150] Setting up conv2
I0219 00:46:32.875339  2895 net.cpp:157] Top shape: 200 256 29 39 (57907200)
I0219 00:46:32.875349  2895 net.cpp:165] Memory required for data: 1422274400
I0219 00:46:32.875370  2895 layer_factory.hpp:77] Creating layer relu2
I0219 00:46:32.875393  2895 net.cpp:106] Creating Layer relu2
I0219 00:46:32.875406  2895 net.cpp:454] relu2 <- conv2
I0219 00:46:32.875419  2895 net.cpp:397] relu2 -> conv2 (in-place)
I0219 00:46:32.875860  2895 net.cpp:150] Setting up relu2
I0219 00:46:32.875886  2895 net.cpp:157] Top shape: 200 256 29 39 (57907200)
I0219 00:46:32.875896  2895 net.cpp:165] Memory required for data: 1653903200
I0219 00:46:32.875906  2895 layer_factory.hpp:77] Creating layer norm2
I0219 00:46:32.875926  2895 net.cpp:106] Creating Layer norm2
I0219 00:46:32.875936  2895 net.cpp:454] norm2 <- conv2
I0219 00:46:32.875952  2895 net.cpp:411] norm2 -> norm2
I0219 00:46:32.876282  2895 net.cpp:150] Setting up norm2
I0219 00:46:32.876307  2895 net.cpp:157] Top shape: 200 256 29 39 (57907200)
I0219 00:46:32.876317  2895 net.cpp:165] Memory required for data: 1885532000
I0219 00:46:32.876327  2895 layer_factory.hpp:77] Creating layer pool2
I0219 00:46:32.876344  2895 net.cpp:106] Creating Layer pool2
I0219 00:46:32.876355  2895 net.cpp:454] pool2 <- norm2
I0219 00:46:32.876371  2895 net.cpp:411] pool2 -> pool2
I0219 00:46:32.876852  2895 net.cpp:150] Setting up pool2
I0219 00:46:32.876878  2895 net.cpp:157] Top shape: 200 256 14 19 (13619200)
I0219 00:46:32.876888  2895 net.cpp:165] Memory required for data: 1940008800
I0219 00:46:32.876899  2895 layer_factory.hpp:77] Creating layer conv3
I0219 00:46:32.876921  2895 net.cpp:106] Creating Layer conv3
I0219 00:46:32.876943  2895 net.cpp:454] conv3 <- pool2
I0219 00:46:32.876965  2895 net.cpp:411] conv3 -> conv3
I0219 00:46:32.921221  2895 net.cpp:150] Setting up conv3
I0219 00:46:32.921283  2895 net.cpp:157] Top shape: 200 384 14 19 (20428800)
I0219 00:46:32.921293  2895 net.cpp:165] Memory required for data: 2021724000
I0219 00:46:32.921319  2895 layer_factory.hpp:77] Creating layer relu3
I0219 00:46:32.921344  2895 net.cpp:106] Creating Layer relu3
I0219 00:46:32.921356  2895 net.cpp:454] relu3 <- conv3
I0219 00:46:32.921371  2895 net.cpp:397] relu3 -> conv3 (in-place)
I0219 00:46:32.921654  2895 net.cpp:150] Setting up relu3
I0219 00:46:32.921679  2895 net.cpp:157] Top shape: 200 384 14 19 (20428800)
I0219 00:46:32.921689  2895 net.cpp:165] Memory required for data: 2103439200
I0219 00:46:32.921700  2895 layer_factory.hpp:77] Creating layer conv4
I0219 00:46:32.921741  2895 net.cpp:106] Creating Layer conv4
I0219 00:46:32.921756  2895 net.cpp:454] conv4 <- conv3
I0219 00:46:32.921772  2895 net.cpp:411] conv4 -> conv4
I0219 00:46:32.956650  2895 net.cpp:150] Setting up conv4
I0219 00:46:32.956710  2895 net.cpp:157] Top shape: 200 384 14 19 (20428800)
I0219 00:46:32.956722  2895 net.cpp:165] Memory required for data: 2185154400
I0219 00:46:32.956740  2895 layer_factory.hpp:77] Creating layer relu4
I0219 00:46:32.956758  2895 net.cpp:106] Creating Layer relu4
I0219 00:46:32.956770  2895 net.cpp:454] relu4 <- conv4
I0219 00:46:32.956787  2895 net.cpp:397] relu4 -> conv4 (in-place)
I0219 00:46:32.957072  2895 net.cpp:150] Setting up relu4
I0219 00:46:32.957095  2895 net.cpp:157] Top shape: 200 384 14 19 (20428800)
I0219 00:46:32.957104  2895 net.cpp:165] Memory required for data: 2266869600
I0219 00:46:32.957114  2895 layer_factory.hpp:77] Creating layer conv5
I0219 00:46:32.957137  2895 net.cpp:106] Creating Layer conv5
I0219 00:46:32.957149  2895 net.cpp:454] conv5 <- conv4
I0219 00:46:32.957166  2895 net.cpp:411] conv5 -> conv5
I0219 00:46:32.981156  2895 net.cpp:150] Setting up conv5
I0219 00:46:32.981204  2895 net.cpp:157] Top shape: 200 256 14 19 (13619200)
I0219 00:46:32.981215  2895 net.cpp:165] Memory required for data: 2321346400
I0219 00:46:32.981241  2895 layer_factory.hpp:77] Creating layer relu5
I0219 00:46:32.981259  2895 net.cpp:106] Creating Layer relu5
I0219 00:46:32.981271  2895 net.cpp:454] relu5 <- conv5
I0219 00:46:32.981287  2895 net.cpp:397] relu5 -> conv5 (in-place)
I0219 00:46:32.981745  2895 net.cpp:150] Setting up relu5
I0219 00:46:32.981771  2895 net.cpp:157] Top shape: 200 256 14 19 (13619200)
I0219 00:46:32.981781  2895 net.cpp:165] Memory required for data: 2375823200
I0219 00:46:32.981791  2895 layer_factory.hpp:77] Creating layer pool5
I0219 00:46:32.981806  2895 net.cpp:106] Creating Layer pool5
I0219 00:46:32.981815  2895 net.cpp:454] pool5 <- conv5
I0219 00:46:32.981832  2895 net.cpp:411] pool5 -> pool5
I0219 00:46:32.982177  2895 net.cpp:150] Setting up pool5
I0219 00:46:32.982199  2895 net.cpp:157] Top shape: 200 256 7 9 (3225600)
I0219 00:46:32.982209  2895 net.cpp:165] Memory required for data: 2388725600
I0219 00:46:32.982219  2895 layer_factory.hpp:77] Creating layer fc6
I0219 00:46:32.982244  2895 net.cpp:106] Creating Layer fc6
I0219 00:46:32.982254  2895 net.cpp:454] fc6 <- pool5
I0219 00:46:32.982270  2895 net.cpp:411] fc6 -> fc6
I0219 00:46:36.149940  2895 net.cpp:150] Setting up fc6
I0219 00:46:36.150014  2895 net.cpp:157] Top shape: 200 4096 (819200)
I0219 00:46:36.150025  2895 net.cpp:165] Memory required for data: 2392002400
I0219 00:46:36.150046  2895 layer_factory.hpp:77] Creating layer relu6
I0219 00:46:36.150065  2895 net.cpp:106] Creating Layer relu6
I0219 00:46:36.150077  2895 net.cpp:454] relu6 <- fc6
I0219 00:46:36.150096  2895 net.cpp:397] relu6 -> fc6 (in-place)
I0219 00:46:36.150706  2895 net.cpp:150] Setting up relu6
I0219 00:46:36.150730  2895 net.cpp:157] Top shape: 200 4096 (819200)
I0219 00:46:36.150740  2895 net.cpp:165] Memory required for data: 2395279200
I0219 00:46:36.150750  2895 layer_factory.hpp:77] Creating layer drop6
I0219 00:46:36.150766  2895 net.cpp:106] Creating Layer drop6
I0219 00:46:36.150789  2895 net.cpp:454] drop6 <- fc6
I0219 00:46:36.150820  2895 net.cpp:397] drop6 -> fc6 (in-place)
I0219 00:46:36.150882  2895 net.cpp:150] Setting up drop6
I0219 00:46:36.150909  2895 net.cpp:157] Top shape: 200 4096 (819200)
I0219 00:46:36.150919  2895 net.cpp:165] Memory required for data: 2398556000
I0219 00:46:36.150929  2895 layer_factory.hpp:77] Creating layer fc7
I0219 00:46:36.150945  2895 net.cpp:106] Creating Layer fc7
I0219 00:46:36.150955  2895 net.cpp:454] fc7 <- fc6
I0219 00:46:36.150974  2895 net.cpp:411] fc7 -> fc7
I0219 00:46:36.955396  2895 net.cpp:150] Setting up fc7
I0219 00:46:36.955461  2895 net.cpp:157] Top shape: 200 4096 (819200)
I0219 00:46:36.955471  2895 net.cpp:165] Memory required for data: 2401832800
I0219 00:46:36.955490  2895 layer_factory.hpp:77] Creating layer relu7
I0219 00:46:36.955513  2895 net.cpp:106] Creating Layer relu7
I0219 00:46:36.955524  2895 net.cpp:454] relu7 <- fc7
I0219 00:46:36.955539  2895 net.cpp:397] relu7 -> fc7 (in-place)
I0219 00:46:36.955888  2895 net.cpp:150] Setting up relu7
I0219 00:46:36.955910  2895 net.cpp:157] Top shape: 200 4096 (819200)
I0219 00:46:36.955919  2895 net.cpp:165] Memory required for data: 2405109600
I0219 00:46:36.955929  2895 layer_factory.hpp:77] Creating layer drop7
I0219 00:46:36.955945  2895 net.cpp:106] Creating Layer drop7
I0219 00:46:36.955955  2895 net.cpp:454] drop7 <- fc7
I0219 00:46:36.955967  2895 net.cpp:397] drop7 -> fc7 (in-place)
I0219 00:46:36.956033  2895 net.cpp:150] Setting up drop7
I0219 00:46:36.956051  2895 net.cpp:157] Top shape: 200 4096 (819200)
I0219 00:46:36.956061  2895 net.cpp:165] Memory required for data: 2408386400
I0219 00:46:36.956070  2895 layer_factory.hpp:77] Creating layer fc8
I0219 00:46:36.956091  2895 net.cpp:106] Creating Layer fc8
I0219 00:46:36.956102  2895 net.cpp:454] fc8 <- fc7
I0219 00:46:36.956115  2895 net.cpp:411] fc8 -> fc8
I0219 00:46:36.959934  2895 net.cpp:150] Setting up fc8
I0219 00:46:36.959959  2895 net.cpp:157] Top shape: 200 19 (3800)
I0219 00:46:36.959967  2895 net.cpp:165] Memory required for data: 2408401600
I0219 00:46:36.959982  2895 layer_factory.hpp:77] Creating layer loss
I0219 00:46:36.959997  2895 net.cpp:106] Creating Layer loss
I0219 00:46:36.960007  2895 net.cpp:454] loss <- fc8
I0219 00:46:36.960018  2895 net.cpp:454] loss <- label
I0219 00:46:36.960033  2895 net.cpp:411] loss -> loss
I0219 00:46:36.960114  2895 net.cpp:150] Setting up loss
…
